Model: "model"
__________________________________________________________________________________________________
Layer (type)                    Output Shape         Param #     Connected to
==================================================================================================
input_1 (InputLayer)            [(None, 224, 224, 8) 0
__________________________________________________________________________________________________
conv2d (Conv2D)                 (None, 224, 224, 71) 5183        input_1[0][0]
__________________________________________________________________________________________________
conv2d_1 (Conv2D)               (None, 224, 224, 71) 45440       conv2d[0][0]
__________________________________________________________________________________________________
batch_normalization (BatchNorma (None, 224, 224, 71) 284         conv2d_1[0][0]
__________________________________________________________________________________________________
max_pooling2d (MaxPooling2D)    (None, 112, 112, 71) 0           batch_normalization[0][0]
__________________________________________________________________________________________________
conv2d_2 (Conv2D)               (None, 112, 112, 142 90880       max_pooling2d[0][0]
__________________________________________________________________________________________________
conv2d_3 (Conv2D)               (None, 112, 112, 142 181618      conv2d_2[0][0]
__________________________________________________________________________________________________
batch_normalization_1 (BatchNor (None, 112, 112, 142 568         conv2d_3[0][0]
__________________________________________________________________________________________________
max_pooling2d_1 (MaxPooling2D)  (None, 56, 56, 142)  0           batch_normalization_1[0][0]
__________________________________________________________________________________________________
conv2d_4 (Conv2D)               (None, 56, 56, 284)  363236      max_pooling2d_1[0][0]
__________________________________________________________________________________________________
conv2d_5 (Conv2D)               (None, 56, 56, 284)  726188      conv2d_4[0][0]
__________________________________________________________________________________________________
batch_normalization_2 (BatchNor (None, 56, 56, 284)  1136        conv2d_5[0][0]
__________________________________________________________________________________________________
max_pooling2d_2 (MaxPooling2D)  (None, 28, 28, 284)  0           batch_normalization_2[0][0]
__________________________________________________________________________________________________
conv2d_6 (Conv2D)               (None, 28, 28, 284)  726188      max_pooling2d_2[0][0]
__________________________________________________________________________________________________
conv2d_7 (Conv2D)               (None, 28, 28, 284)  726188      conv2d_6[0][0]
__________________________________________________________________________________________________
batch_normalization_3 (BatchNor (None, 28, 28, 284)  1136        conv2d_7[0][0]
__________________________________________________________________________________________________
max_pooling2d_3 (MaxPooling2D)  (None, 14, 14, 284)  0           batch_normalization_3[0][0]
__________________________________________________________________________________________________
conv2d_8 (Conv2D)               (None, 14, 14, 568)  1452376     max_pooling2d_3[0][0]
__________________________________________________________________________________________________
conv2d_9 (Conv2D)               (None, 14, 14, 568)  2904184     conv2d_8[0][0]
__________________________________________________________________________________________________
batch_normalization_4 (BatchNor (None, 14, 14, 568)  2272        conv2d_9[0][0]
__________________________________________________________________________________________________
up_sampling2d (UpSampling2D)    (None, 28, 28, 568)  0           batch_normalization_4[0][0]
__________________________________________________________________________________________________
conv2d_10 (Conv2D)              (None, 28, 28, 284)  645532      up_sampling2d[0][0]
__________________________________________________________________________________________________
concatenate (Concatenate)       (None, 28, 28, 568)  0           batch_normalization_3[0][0]
                                                                 conv2d_10[0][0]
__________________________________________________________________________________________________
conv2d_11 (Conv2D)              (None, 28, 28, 284)  1452092     concatenate[0][0]
__________________________________________________________________________________________________
conv2d_12 (Conv2D)              (None, 28, 28, 284)  726188      conv2d_11[0][0]
__________________________________________________________________________________________________
batch_normalization_5 (BatchNor (None, 28, 28, 284)  1136        conv2d_12[0][0]
__________________________________________________________________________________________________
up_sampling2d_1 (UpSampling2D)  (None, 56, 56, 284)  0           batch_normalization_5[0][0]
__________________________________________________________________________________________________
conv2d_13 (Conv2D)              (None, 56, 56, 284)  322908      up_sampling2d_1[0][0]
__________________________________________________________________________________________________
concatenate_1 (Concatenate)     (None, 56, 56, 568)  0           batch_normalization_2[0][0]
                                                                 conv2d_13[0][0]
__________________________________________________________________________________________________
conv2d_14 (Conv2D)              (None, 56, 56, 284)  1452092     concatenate_1[0][0]
__________________________________________________________________________________________________
conv2d_15 (Conv2D)              (None, 56, 56, 284)  726188      conv2d_14[0][0]
__________________________________________________________________________________________________
batch_normalization_6 (BatchNor (None, 56, 56, 284)  1136        conv2d_15[0][0]
__________________________________________________________________________________________________
up_sampling2d_2 (UpSampling2D)  (None, 112, 112, 284 0           batch_normalization_6[0][0]
__________________________________________________________________________________________________
conv2d_16 (Conv2D)              (None, 112, 112, 142 161454      up_sampling2d_2[0][0]
…
__________________________________________________________________________________________________
conv2d_18 (Conv2D)              (None, 112, 112, 142 181618      conv2d_17[0][0]
__________________________________________________________________________________________________
batch_normalization_7 (BatchNor (None, 112, 112, 142 568         conv2d_18[0][0]
__________________________________________________________________________________________________
up_sampling2d_3 (UpSampling2D)  (None, 224, 224, 142 0           batch_normalization_7[0][0]
__________________________________________________________________________________________________
conv2d_19 (Conv2D)              (None, 224, 224, 71) 40399       up_sampling2d_3[0][0]
__________________________________________________________________________________________________
concatenate_3 (Concatenate)     (None, 224, 224, 142 0           conv2d_1[0][0]
                                                                 conv2d_19[0][0]
__________________________________________________________________________________________________
conv2d_20 (Conv2D)              (None, 224, 224, 71) 90809       concatenate_3[0][0]
__________________________________________________________________________________________________
conv2d_21 (Conv2D)              (None, 224, 224, 71) 45440       conv2d_20[0][0]
__________________________________________________________________________________________________
conv2d_22 (Conv2D)              (None, 224, 224, 71) 45440       conv2d_21[0][0]
__________________________________________________________________________________________________
conv2d_23 (Conv2D)              (None, 224, 224, 1)  72          conv2d_22[0][0]
__________________________________________________________________________________________________
conv2d_24 (Conv2D)              (None, 224, 224, 1)  72          conv2d_22[0][0]
__________________________________________________________________________________________________
conv2d_25 (Conv2D)              (None, 224, 224, 1)  72          conv2d_22[0][0]
__________________________________________________________________________________________________
conv2d_26 (Conv2D)              (None, 224, 224, 1)  72          conv2d_22[0][0]
__________________________________________________________________________________________________
conv2d_27 (Conv2D)              (None, 224, 224, 1)  72          conv2d_22[0][0]
__________________________________________________________________________________________________
conv2d_28 (Conv2D)              (None, 224, 224, 1)  72          conv2d_22[0][0]
__________________________________________________________________________________________________
conv2d_29 (Conv2D)              (None, 224, 224, 1)  72          conv2d_22[0][0]
__________________________________________________________________________________________________
tf.stack (TFOpLambda)           (None, 7, 224, 224,  0           conv2d_23[0][0]
                                                                 conv2d_24[0][0]
                                                                 conv2d_25[0][0]
                                                                 conv2d_26[0][0]
…
