Model: "model"
_________________________________________________________________
Layer (type)                 Output Shape              Param #
=================================================================
input_1 (InputLayer)         [(None, 1, 224, 224, 8)]  0
_________________________________________________________________
conv_lst_m2d (ConvLSTM2D)    (None, 224, 224, 17)      15368
_________________________________________________________________
batch_normalization (BatchNo (None, 224, 224, 17)      68
_________________________________________________________________
lambda (Lambda)              (None, 7, 224, 224, 17)   0
_________________________________________________________________
conv_lst_m2d_1 (ConvLSTM2D)  (None, 7, 224, 224, 17)   20876
_________________________________________________________________
dense (Dense)                (None, 7, 224, 224, 1)    18
=================================================================
Total params: 36,330
Trainable params: 36,296
Non-trainable params: 34
_________________________________________________________________
2021-11-02 09:47:23.868685: I tensorflow/compiler/jit/xla_cpu_device.cc:41] Not creating XLA devices, tf_xla_enable_xla_devices not set
2021-11-02 09:47:23.869346: I tensorflow/stream_executor/platform/default/dso_loader.cc:49] Successfully opened dynamic library libcuda.so.1
…
