Model: "model"
__________________________________________________________________________________________________
Layer (type)                    Output Shape         Param #     Connected to
==================================================================================================
input_1 (InputLayer)            [(None, 224, 224, 8) 0
__________________________________________________________________________________________________
conv2d (Conv2D)                 (None, 224, 224, 64) 4672        input_1[0][0]
__________________________________________________________________________________________________
conv2d_1 (Conv2D)               (None, 224, 224, 64) 36928       conv2d[0][0]
__________________________________________________________________________________________________
batch_normalization (BatchNorma (None, 224, 224, 64) 256         conv2d_1[0][0]
__________________________________________________________________________________________________
max_pooling2d (MaxPooling2D)    (None, 112, 112, 64) 0           batch_normalization[0][0]
__________________________________________________________________________________________________
conv2d_2 (Conv2D)               (None, 112, 112, 128 73856       max_pooling2d[0][0]
__________________________________________________________________________________________________
conv2d_3 (Conv2D)               (None, 112, 112, 128 147584      conv2d_2[0][0]
__________________________________________________________________________________________________
batch_normalization_1 (BatchNor (None, 112, 112, 128 512         conv2d_3[0][0]
__________________________________________________________________________________________________
max_pooling2d_1 (MaxPooling2D)  (None, 56, 56, 128)  0           batch_normalization_1[0][0]
__________________________________________________________________________________________________
conv2d_4 (Conv2D)               (None, 56, 56, 256)  295168      max_pooling2d_1[0][0]
__________________________________________________________________________________________________
conv2d_5 (Conv2D)               (None, 56, 56, 256)  590080      conv2d_4[0][0]
__________________________________________________________________________________________________
batch_normalization_2 (BatchNor (None, 56, 56, 256)  1024        conv2d_5[0][0]
__________________________________________________________________________________________________
max_pooling2d_2 (MaxPooling2D)  (None, 28, 28, 256)  0           batch_normalization_2[0][0]
__________________________________________________________________________________________________
conv2d_6 (Conv2D)               (None, 28, 28, 256)  590080      max_pooling2d_2[0][0]
__________________________________________________________________________________________________
conv2d_7 (Conv2D)               (None, 28, 28, 256)  590080      conv2d_6[0][0]
__________________________________________________________________________________________________
batch_normalization_3 (BatchNor (None, 28, 28, 256)  1024        conv2d_7[0][0]
__________________________________________________________________________________________________
max_pooling2d_3 (MaxPooling2D)  (None, 14, 14, 256)  0           batch_normalization_3[0][0]
__________________________________________________________________________________________________
conv2d_8 (Conv2D)               (None, 14, 14, 512)  1180160     max_pooling2d_3[0][0]
__________________________________________________________________________________________________
conv2d_9 (Conv2D)               (None, 14, 14, 512)  2359808     conv2d_8[0][0]
__________________________________________________________________________________________________
batch_normalization_4 (BatchNor (None, 14, 14, 512)  2048        conv2d_9[0][0]
__________________________________________________________________________________________________
up_sampling2d (UpSampling2D)    (None, 28, 28, 512)  0           batch_normalization_4[0][0]
__________________________________________________________________________________________________
conv2d_10 (Conv2D)              (None, 28, 28, 256)  524544      up_sampling2d[0][0]
__________________________________________________________________________________________________
concatenate (Concatenate)       (None, 28, 28, 512)  0           batch_normalization_3[0][0]
                                                                 conv2d_10[0][0]
__________________________________________________________________________________________________
conv2d_11 (Conv2D)              (None, 28, 28, 256)  1179904     concatenate[0][0]
__________________________________________________________________________________________________
conv2d_12 (Conv2D)              (None, 28, 28, 256)  590080      conv2d_11[0][0]
__________________________________________________________________________________________________
batch_normalization_5 (BatchNor (None, 28, 28, 256)  1024        conv2d_12[0][0]
__________________________________________________________________________________________________
up_sampling2d_1 (UpSampling2D)  (None, 56, 56, 256)  0           batch_normalization_5[0][0]
__________________________________________________________________________________________________
conv2d_13 (Conv2D)              (None, 56, 56, 256)  262400      up_sampling2d_1[0][0]
__________________________________________________________________________________________________
concatenate_1 (Concatenate)     (None, 56, 56, 512)  0           batch_normalization_2[0][0]
                                                                 conv2d_13[0][0]
__________________________________________________________________________________________________
conv2d_14 (Conv2D)              (None, 56, 56, 256)  1179904     concatenate_1[0][0]
__________________________________________________________________________________________________
conv2d_15 (Conv2D)              (None, 56, 56, 256)  590080      conv2d_14[0][0]
__________________________________________________________________________________________________
batch_normalization_6 (BatchNor (None, 56, 56, 256)  1024        conv2d_15[0][0]
__________________________________________________________________________________________________
up_sampling2d_2 (UpSampling2D)  (None, 112, 112, 256 0           batch_normalization_6[0][0]
__________________________________________________________________________________________________
conv2d_16 (Conv2D)              (None, 112, 112, 128 131200      up_sampling2d_2[0][0]
…
__________________________________________________________________________________________________
conv2d_18 (Conv2D)              (None, 112, 112, 128 147584      conv2d_17[0][0]
__________________________________________________________________________________________________
batch_normalization_7 (BatchNor (None, 112, 112, 128 512         conv2d_18[0][0]
__________________________________________________________________________________________________
up_sampling2d_3 (UpSampling2D)  (None, 224, 224, 128 0           batch_normalization_7[0][0]
__________________________________________________________________________________________________
conv2d_19 (Conv2D)              (None, 224, 224, 64) 32832       up_sampling2d_3[0][0]
__________________________________________________________________________________________________
concatenate_3 (Concatenate)     (None, 224, 224, 128 0           conv2d_1[0][0]
                                                                 conv2d_19[0][0]
__________________________________________________________________________________________________
conv2d_20 (Conv2D)              (None, 224, 224, 64) 73792       concatenate_3[0][0]
__________________________________________________________________________________________________
conv2d_21 (Conv2D)              (None, 224, 224, 64) 36928       conv2d_20[0][0]
__________________________________________________________________________________________________
conv2d_22 (Conv2D)              (None, 224, 224, 64) 36928       conv2d_21[0][0]
__________________________________________________________________________________________________
conv2d_23 (Conv2D)              (None, 224, 224, 1)  65          conv2d_22[0][0]
__________________________________________________________________________________________________
tf.stack (TFOpLambda)           (None, 1, 224, 224,  0           conv2d_23[0][0]
==================================================================================================
Total params: 10,957,121
Trainable params: 10,953,409
Non-trainable params: 3,712
__________________________________________________________________________________________________
…
